TimeGAN/Model/timegan-pytorch-main/output/test/model.pt (torch, 52547 bytes, 65 tensors)

embedder.emb_rnn.weight_ih_l0 f4 [30, 19]
00000000: 8f2e 9c3c abce a4be ccb1 cfbe 2ae8 41be
00000010: 2d86 e13e 6bcc 7c3e c6bf 8e3c b256 853e
00000020: 9fac 543e 4515 a33f a426 123f 0072 d0be
00000030: 86ac 923e c05a 8b3d b128 e3bb 1ccd 8f3d
00000040: a7e2 4ebe 1391 873e d144 f03c af61 113d
00000050: 227d 623e 6ff0 283f 6507 45bf 5327 243d
00000060: ec51 5cbd 6b4e 083e b30f 643e bef2 4c3f
00000070: 3431 173f 9cb4 cbbd 2849 fdbe f050 1fbe
00000080: bd65 883d c380 36be c604 6dbe eaed 32be
00000090: 4d65 a03e 0d8d 42be e6d9 0abe 8c15 0c3e
000000a0: 0b21 293e 1253 49be f7d3 21be e05c 593e
000000b0: 5191 753d 5ce3 41be 2644 203f 3cd1 8bbd
000000c0: c208 a0bd 836f a0be 8d10 9dbe 14ca 403e
000000d0: 2fde a73e 95c5 08be fea7 7cbe e733 bd3d
000000e0: e344 17bf 1d2b 733e ab25 d7be b278 02bf
000000f0: 2648 cebe 8ffa 13bf c639 ecbd 90da 0b3e
00000100: ca15 963e be1f 323e 8c57 a3be 9252 f8bd
00000110: 2d23 8fbe ce89 99bb d164 42bd 23f6 d5be
00000120: cf18 b4be e6c8 da3d 725b c6be e9a1 a03e
00000130: 2e00 01be e932 e93c 3daf bfbe 3f5b bfbe
00000140: b0b4 86be 5852 e2bd 8e5f a53c b660 ddbe
00000150: cfbc cc3e 6c31 be3c 264a 98be 1b13 683f
00000160: 7757 023f 7ac2 13be 98d8 96be bbd3 bebb
00000170: e8ce dcbd 3ae0 7bbe c3c4 87bf 7750 b1bd
00000180: cc56 263e 863a 55bc a019 50bc 8032 5bbe
00000190: 281a 8c3e 7330 c43d e562 c53e b4db ce3e
000001a0: 7b86 d13c 83b8 1cbf 24fe e8be 3c54 6bbf
000001b0: ab9e 9b3e 5cdd 84be 715d c4bd 24d7 c1be
000001c0: a38d a5be 558e b93e ab25 88be 0941 acbe
000001d0: 1685 55bd 6dc2 453e 6e14 983d fb99 87be
000001e0: f2cb 03be 7b23 1bbe a861 b23d 06f9 93be
000001f0: b908 02bf e118 903e d7e6 8a3e 6ef0 13bd
00000200: a3c5 053e 7163 32bb 61af 10be 87f8 c73e
00000210: 4fde 373f 89ba 2e3c bb2d 313e 91cb 9f3e
00000220: 371c a63e 323c 193e ff2e c53e 3f08 993e
00000230: 6aef 1b3f 5d2f 773c 1553 7ebd 2034 e93e
00000240: 2f9c 5dbe 7828 e7bd b1fc 52be ad8a af3d
00000250: 1800 c63d f2f4 16bc 7b5e 28be 0ae1 ea3e
00000260: f0b6 cbbe 5dc6 8cbe f268 a23d 721f 02bf
00000270: 19c2 bf3d 1d10 2bbd 1f81 9c3d 35ec 9bbe
00000280: f202 2c3f 9612 013e f5de 2b3e 6c28 243f
00000290: ffc5 04bd f211 e53e 4299 92bd f5ab c1bd
000002a0: 8398 233f d909 453f 98e1 0ebe c255 11be
000002b0: fe9c 22bd d0a1 c5be 91ba 463e b168 513e
000002c0: f214 e93d d434 ae3e 2ed6 7e3e 1525 f9be
000002d0: 506b 973e 783c 2dbf 587a acbe 23a1 ba3c
000002e0: 44a7 1a3e 4e3c 243d 495b b3bd b5e7 103e
000002f0: 9fe1 0dbe 06e1 fc3e 6147 773c a92a adbe
00000300: 0fc3 9bbe 08ec 8bbe 5101 cc3e 83d5 cdbe
00000310: ede8 74bd a950 a93d 3045 6ebf 09be 8cbf
00000320: e7f7 05be 3bee 053e f637 aa3d 1062 04be
00000330: 6beb 8fbe ed34 b2bd e4dc fbbd 18e3 893e
00000340: 90ef 363f 3f11 22bf b261 313e 3f58 3a3d
00000350: 3914 4d3e 9f84 043f c9fc 1fbe ca46 e8be
00000360: 7b72 3bbe 6f44 9dbf 1b32 0cc0 1979 0abd
00000370: d62e cb3e 73a4 9a3e c5a2 dcbd 88eb 2cbf
00000380: fd7e 25bf e7f8 19bf 6b77 0bbf d9ca 29bf
00000390: 6498 083f ea2b 95bd c8d5 0d3e 97cf c83d
000003a0: 97f0 4a3e 5121 903e 2622 24be 4af1 93be
000003b0: 6dff 22be cf23 2cbf d029 aebe f279 8b3e
000003c0: eb57 b6ba 2c28 b1bd 8ff5 4c3e 4585 6b3e
000003d0: 85a5 42be 9a74 363e 6a47 cd3e 5820 b83d
000003e0: 63f2 a0be 093d a3be 68aa e53e 011c 0f3e
000003f0: 6eee b13e f997 56be 711b debd e985 9fbf
0.01906517 -0.32188925 -0.40565336 -0.1893622 0.4404768 0.24687354 0.01742543 0.26042706
0.20768975 1.2740866 0.5709021 -0.40711975 0.2864725 0.068044186 -0.006932341 0.070215434
-0.20203649 0.2647787 0.02932969 0.03549355 0.22118047 0.6599187 -0.7696441 0.040076565
-0.053789064 0.13311164 0.22271614 0.80057895 0.59059453 -0.09946558 -0.49469876 -0.15558219
0.0666003 -0.17822556 -0.23146352 -0.1747357 0.31327286 -0.18999119 -0.13559684 0.13680094
0.16516511 -0.19660595 -0.15803514 0.21226835 0.059953038 -0.18934387 0.62603986 -0.06827018
-0.078141704 -0.31335077 -0.3067669 0.18827087 0.327867 -0.13356622 -0.24673459 0.09238415
-0.5908949 0.23746915 -0.42020926 -0.50965416 -0.4028942 -0.578042 -0.11534457 0.13657594
0.293135 0.17394921 -0.3190273 -0.12125124 -0.27956524 -0.004685617 -0.047459427 -0.4178935
-0.35175177 0.106828496 -0.38741642 0.31373528 -0.12597725 0.028466659 -0.37438384 -0.37374303
-0.2630973 -0.11050862 0.020187166 -0.43237847 0.399878 0.023216926 -0.2974407 0.9065415
0.5091471 -0.14429656 -0.29462123 -0.00582358 -0.10781652 -0.24597254 -1.0606922 -0.086579256
0.16244048 -0.013014441 -0.012701422 -0.21405983 0.27363706 0.095795535 0.38552013 0.40401995
0.02557682 -0.6121904 -0.45506394 -0.91925406 0.30394492 -0.25950134 -0.09588135 -0.37859452
-0.32334623 0.36241403 -0.26591238 -0.33643368 -0.052128874 0.19312449 0.07425772 -0.26484665
-0.12870768 -0.15150253 0.08710033 -0.28900927 -0.5079456 0.2814398 0.27129242 -0.036117963
0.13063674 -0.0027219916 -0.14129402 0.390568 0.7182359 0.010664591 0.17302601 0.31209996
0.324434 0.14964369 0.38512418 0.29889104 0.6091219 0.015086976 -0.062090952 0.4554758
-0.2164161 -0.11287016 -0.20604207 0.08571372 0.09667987 -0.009213673 -0.16442291 0.45874816
-0.39788008 -0.2749509 0.07930173 -0.5082923 0.09363193 -0.041763414 0.076418154 -0.3045365
0.67191994 0.12604746 0.1678427 0.6412418 -0.032415386 0.44740254 -0.07158138 -0.09456626
0.6390459 0.7696815 -0.13953245 -0.1419287 -0.0397005 -0.38600016 0.19407107 0.20450093
0.11380948 0.3402468 0.2488639 -0.48661104 0.2957406 -0.67670393 -0.3368709 0.022781914
0.1510287 0.040096574 -0.08757646 0.14150889 -0.13855599 0.4939043 0.015092702 -0.3382161
-0.30422255 -0.27328515 0.39844754 -0.4020196 -0.059792448 0.08267338 -0.9307432 -1.0995494
-0.13082848 0.13079159 0.08311455 -0.12928033 -0.28109297 -0.08701501 -0.12297991 0.2693107
0.71459293 -0.63307565 0.17322424 0.045494314 0.20027246 0.51764864 -0.15623774 -0.45366508
-0.1830539 -1.2286509 -2.1905582 -0.033806894 0.3968417 0.3020359 -0.10773233 -0.6754689
-0.64646894 -0.6014542 -0.5447909 -0.66325146 0.5335753 -0.072837666 0.13851082 0.098052196
0.1981834 0.28150418 -0.16028652 -0.28895026 -0.1591775 -0.6724214 -0.34016275 0.27241474
-0.00139117 -0.0865024 0.20015548 0.23000057 -0.19008453 0.17817917 0.40093547 0.08990544
-0.31434926 -0.31882504 0.44856572 0.13975526 0.3475222 -0.2095641 -0.10845078 -1.2462741

embedder.emb_rnn.weight_hh_l0 f4 [30, 10]
00000000: 0294 aabd 1bb3 12be 9d20 95be b237 633e
00000010: e79e 23bf 5bca 23be c930 373f df41 2a3d
00000020: c674 90be 4096 8bbe 123e c1be af8d e73e
00000030: 63c0 d5be af25 8d3e dd3d 103f dce0 b53e
00000040: 57be 043e 496f 993e 6c6b b1bd 6454 a23e
00000050: b5fd 8e3e c46a a2be e542 1d3c bdc8 353e
00000060: 9d53 b5be 94dc 413e 3d86 8abe 9f34 37be
00000070: 3430 303c e72c 92bd d3bd 833e ab26 5dbe
00000080: 55f7 083f f855 bb3e e516 54be 2539 19be
00000090: a726 083f 5f1e 14be 0814 92be ba96 733e
000000a0: 4a34 e83e 004b 70be 58c1 093b 56e1 91bd
000000b0: 5c9f 293e 35a7 78bd 73c5 bebe 0ea2 0ebe
000000c0: b6e2 a33e e29a f53d 7c5f 8f3e 1cfd 843e
000000d0: 9e1c f63d d49d 693e 0d11 16be 2f38 8c3e
000000e0: 30da 713e b84c d5bc 2c9f 013d 75a0 84be
000000f0: a6ff 9dbe 6051 a43e 9d0f d3be 1512 34be
00000100: a7af dfbe 0319 80be 3d0e 653c d2b9 383e
00000110: d296 ffbe d1c3 083c 6b04 bd3e e02d bf3e
00000120: 2d32 a13d fd01 51be b4c5 babc a776 43bd
00000130: 0f6b a4bd c1a7 e83e 8bfd 78bd 148e 1abe
00000140: 2b9e 9cbe 1adc 9e3e 5213 a2be 2366 993d
00000150: 2ba8 a73e a03d 91bf f0fe 9b3d e497 f63c
00000160: 1a5e 883e 9a86 8ebe b837 9bbe 07a0 7dbd
00000170: 03db b03e 3b05 94be 5d21 ab3d 9dfa a3bd
00000180: 95df 113e 7d1d 863d 74f6 56be 5b1e f2bd
00000190: 6c51 f23e de56 763e 648e 593e 825e 1fbe
000001a0: e363 db3d c560 d2bc 17de 03be 09b2 8d3d
000001b0: 17d2 0b3e 793d 98bd c824 97bd ce67 78bd
000001c0: 779e 0ebf 7140 543e 40c2 febe 336b 19bf
000001d0: ef7f 923e ba7e 18bf bd5a 21bd 8569 b3be
000001e0: 8587 1dbf 0aa2 6cbe f1d6 3dbf 9a7d 4cbe
000001f0: 63d6 c53e b672 eabe c1c0 173e 8ba6 7ebf
00000200: add6 5ebf 0202 05bf 9f63 1dbe a0fd e33c
00000210: 7dcd 11bf bc62 8fbe 6358 c1be f046 9fbe
00000220: a91f febe 9fb1 44bf c778 39bb 699c 42be
00000230: d87a 333f f3a0 c8be 9e08 dc3d 5000 a03e
00000240: b22a 71bf d039 90bd 2120 2f3f 66ee 853e
00000250: d4e9 983f 0e78 68bb 34a5 96be 060e 58bf
00000260: 3577 d5be 2eb9 aabf cbc4 cebf 7f36 b5bf
00000270: 2dd1 eebe 74b7 6ebf b383 ccbe 303c 91bf
00000280: b341 80be 3304 76be ed38 14bf 4971 04bf
00000290: bb30 1bbd c157 7ebe 5e94 3ebf 9ae5 47be
000002a0: e1fb 2fbf 76a9 c7be 63d2 9dbe b712 74bf
000002b0: 7525 2dbf 6613 66bf 20f7 2ebf 23dd 08bd
000002c0: 83c7 a03e 671c d5bd 7b15 47bf b1ac 77bf
000002d0: 7b5f 07bd 20d3 103f 2d1d 5e3e 34a2 5a3e
000002e0: 1ffc 63bf cfcc d0bc d32b e4bf abcd 383e
000002f0: 7453 9abe 3b1f 2fbd b74b d5be 7ca5 b1be
00000300: 1472 36bf 9861 d23d f099 55bd 0efe b0be
00000310: a43f 10bf 89b4 e0be 6200 80be 199c 233e
00000320: 6130 1abe 0fe3 1d3f e0d4 313c ab25 acbe
00000330: 0852 e73d 92b7 5fbe 924b 073e 223e 6fbe
00000340: aacf 79bd d63b b5bd 4257 b7be 37e8 eebe
00000350: e7b8 38bf 2955 98be 8a3f fcbe e7d4 80bd
00000360: 04ef 093f 86ee eabe 3b34 dbbd f283 dcbe
00000370: 234d 383d 8c2c 5e3e 1dbf eebe bf28 aa3e
00000380: fd93 34bd 1745 9d3e d310 293c 4653 993e
00000390: 0fa2 fe3e 436b 09be 0265 d33e 2c6e 1c3e
000003a0: 4e8c b13e 0427 283f 0eba debe d6f5 5a3f
000003b0: 0ab2 0c3f bee5 b63e c914 053f 14a0 033f
000003c0: 507e 8b3d 7871 aa3e 8f35 673e dbda 27bf
000003d0: ccad d8be 371c c5be 5b9b 353c 57be dabe
000003e0: aff1 2abd cdaa 6abe bf00 a0be 1096 b7be
000003f0: d076 043e c410 3cbe 71f8 5f3e e836 3cbe
-0.083290115 -0.14326136 -0.29126444 0.22189215 -0.6391434 -0.15995161 0.71558815 0.041566726
-0.2821409 -0.2726307 -0.37742668 0.45225284 -0.41748342 0.27567813 0.56344396 0.35523117
0.12963234 0.29967716 -0.08663067 0.3170501 0.27927938 -0.3172208 0.009598468 0.17752357
-0.35415354 0.189318 -0.2705554 -0.17891167 0.01075368 -0.07137471 0.25730762 -0.21596782
0.535024 0.36589026 -0.20711859 -0.14963205 0.5318398 -0.1446471 -0.28530908 0.23787966
0.45352393 -0.2346611 0.0021019783 -0.071230575 0.16564697 -0.060706336 -0.37260017 -0.13929006
0.32008904 0.11992432 0.28002536 0.25974357 0.12017177 0.22814113 -0.14654942 0.27386615
0.23618388 -0.026037559 0.03164594 -0.2590367 -0.30859107 0.32093334 -0.4122285 -0.17585023
-0.436887 -0.25019082 0.013980445 0.18039635 -0.49919754 0.0083474675 0.36917433 0.37339687
0.078708984 -0.20410915 -0.02279935 -0.047720578 -0.08028232 0.45440486 -0.060788672 -0.15093261
-0.30589423 0.310273 -0.31655365 0.07490184 0.3274549 -1.1346931 0.07616985 0.030101724
0.26634294 -0.27837068 -0.30315948 -0.061920192 0.34542093 -0.2891024 0.08355973 -0.08006785
0.14245446 0.06548593 -0.20992452 -0.11822196 0.47327745 0.24056575 0.21245724 -0.15563396
0.10712411 -0.025680909 -0.1287769 0.06918723 0.13654362 -0.074336 -0.07380062 -0.06064587
-0.5571055 0.20727707 -0.49757576 -0.599292 0.2861323 -0.5956837 -0.039393175 -0.35041443
-0.6153491 -0.23108688 -0.741561 -0.19969788 0.38640127 -0.45790642 0.14819624 -0.99472874
-0.8704632 -0.5195619 -0.15370034 0.027830899 -0.56954175 -0.28005016 -0.37762746 -0.3110881
-0.4963353 -0.7683353 -0.0028300749 -0.19004978 0.7010932 -0.39185295 0.10743831 0.31250238
-0.9420577 -0.07042277 0.684084 0.26158446 1.1946359 -0.0035471949 -0.29422915 -0.843964
-0.4169251 -1.3337762 -1.6153806 -1.4157256 -0.46643963 -0.9324868 -0.3994423 -1.1346493
-0.25050125 -0.2402504 -0.5789936 -0.5173536 -0.03788827 -0.24838163 -0.7444514 -0.1952118
-0.6874371 -0.38996476 -0.30824575 -0.95341057 -0.6763528 -0.8987335 -0.6834583 -0.033414017
0.31402215 -0.10405808 -0.7776715 -0.9674788 -0.03305004 0.5657215 0.21690817 0.21350938
-0.8905658 -0.025488285 -1.7825874 0.18047206 -0.30141795 -0.042754393 -0.41659328 -0.34696567
-0.7126782 0.10272521 -0.05214876 -0.34568828 -0.5634711 -0.43887737 -0.25000292 0.15977515
-0.15057518 0.6167459 0.010853976 -0.33622488 0.11294943 -0.2184737 0.13212422 -0.23363546
-0.06098906 -0.088493034 -0.3580876 -0.4666154 -0.7215714 -0.29752472 -0.49267226 -0.06290608
0.53880334 -0.45885104 -0.107033215 -0.43069416 0.04499544 0.21696681 -0.46630183 0.33234212
-0.044086445 0.30716774 0.010318953 0.29946345 0.49733016 -0.13419823 0.41288 0.15276402
0.34677356 0.65684533 -0.43501323 0.85531366 0.54959166 0.35722154 0.5198484 0.51416135
0.068112016 0.33289695 0.22579025 -0.6556832 -0.42320096 -0.3849809 0.011084403 -0.42723343
-0.041734394 -0.22916718 -0.3125057 -0.35856676 0.12935948 -0.1836577 0.21872117 -0.1838032

embedder.emb_rnn.bias_ih_l0 f4 [30]
00000000: efba 803f 923a 803f 9e55 773f 1522 943f
00000010: 4062 693f 99d4 773f fd13 733f 726d a03f
00000020: 9bbb 293f 97e5 8e3f 7c26 1b3f 9666 283f
00000030: 4d3f 633f 7417 6e3f 776d 033f cd47 4d3f
00000040: 1a2a 073f 771a 103f b4b2 d23e 6473 2e3f
00000050: 910c 893f 8e07 873f 7ce4 7a3f db08 973f
00000060: 1c68 853f 2c7d 813f 81da 603f bc90 c43f
00000070: 97c8 823f 4ecb 8a3f
1.0057048 1.0017874 0.96615016 1.1572901 0.9116554 0.96808773 0.94952375 1.25334
0.6630189 1.1163815 0.606056 0.65781534 0.88768464 0.93004537 0.51338905 0.80187684
0.52798617 0.5629038 0.41151965 0.6814482 1.070696 1.054918 0.9800489 1.1799577
1.0422397 1.0116324 0.8783341 1.535667 1.0217465 1.0843294

embedder.emb_rnn.bias_hh_l0 f4 [30]
00000000: 01d1 ba3b 3a58 ea3a 26a5 0abd 9f0f 213e
00000010: 1cee b4bd 21b6 02bd 83c2 4ebd 98b5 813e
00000020: 2089 acbe 0459 ee3d 5bb3 c9be ad32 afbe
00000030: dd05 e6bd 2a44 8fbd 3025 f9be 21e0 4abe
00000040: e8ab f1be d2ca dfbe a2a6 16bf 1919 a3be
00000050: 9f89 203d 78e2 96bc 4020 9f3d 9604 ba3e
00000060: b37a ccbb dd14 66bd ada1 33be 4f88 223f
00000070: 69bb 5fbd 3f9e 023e
0.0057011847 0.0017879077 -0.033848904 0.15728615 -0.08834478 -0.031911973 -0.05047847 0.25333858
-0.33698368 0.11638072 -0.3939465 -0.3421835 -0.11231587 -0.06995423 -0.48661184 -0.19812061
-0.47201467 -0.43709427 -0.5884801 -0.31855085 0.039193746 -0.018418536 0.07769823 0.36331624
-0.006240213 -0.05617224 -0.17542143 0.6348924 -0.054622088 0.12755679

embedder.emb_rnn.weight_ih_l1 f4 [30, 10]
00000000: b73b 833c 91da 6dbe be3d d4bd f553 ce3e
00000010: 97ad 0abe 5752 cb3e 816a 113f 0164 f23e
00000020: f665 ebbe 0ee2 b3bd 8da6 dbbe f922 aabd
00000030: 8783 893e d173 0d3e e2ee df3e cd08 793d
00000040: 633d 173d e95c 92bd 3e59 b93e 1050 1c3e
00000050: 1dcf 913e 3748 9d3f 4d20 b6be e84f 8f3e
00000060: be56 b33e 3f34 bb3e bbf6 a53e e8fb c5bd
00000070: 9cae 3a3e ef3a 7a3d b2e6 233e 6fc5 d2be
00000080: c5f5 a73e 081e e7be a036 7cbe 88a3 24be
00000090: d0b4 9f3e 039b 0d3e 32f8 ac3b be86 c23e
000000a0: f470 e2be 3c3b 5a3f d5cf 25be ee6e 30be
000000b0: afdc ee3c 7b6f c9be e6f5 a8bf 58d6 7d3e
000000c0: 0ccb 4abe 5be3 8a3e a36d c5be fbbd 573f
000000d0: edcc 9a3e 9121 253e a99d 5f3f d8c1 c6bd
000000e0: 2610 84bd 6ce8 ae3d dee9 8d3e 2dd0 b03c
000000f0: a18f bdbe bd94 003e 10e9 9fbb 7f43 ed3d
00000100: 983f 8a3e 101c cbba 1fdf 06bf 4f57 d93d
00000110: ef5f efbd 4f46 cbbe 2640 ebba 5fee 873d
00000120: 8203 b0bd 8fa9 90be 22f4 e4be c0ea f23d
00000130: b3fb 2cbf a16d c03d dde3 7abe 352d 323e
00000140: d791 f33e 38ea 5cbe 7b95 b13e bc1c 143e
00000150: aa1d b8bd 0793 9b3c 9047 813e 9cbf 953e
00000160: 2c73 363d 85d4 b2bc 2e13 ce3e 7677 dabe
00000170: b6e4 8b3e 3f3c 0d40 9b7b 0a40 ce22 bfbe
00000180: d48a 9fbe 7e01 1cbe 76d1 ea3e aa99 2cbe
00000190: 2886 f9bc 5724 48bf f3b7 80bf 450c d0be
000001a0: 37a4 97be 6cf9 15be a2b9 a23e 7bd4 2ebf
000001b0: 04f2 14bf fbe7 9bbe 061d cfbe 10d5 0cbe
000001c0: 3dbb 84be 6e5a 55bf b0fd 8fbe 8d53 d33d
000001d0: 7597 17be 5ec3 1abf 6e31 e5be 834a 46bf
000001e0: 8092 92be d92d 20bf 5c37 493e 4b7c 5fbf
000001f0: 5b48 89be a90d b6be fdc1 4cbf 7ea1 55bf
00000200: 4539 a9be d80e 8bbf 9cfe b3be bbc1 5ebf
00000210: 51aa 21bd 1b01 b0be 17d8 dbbe 63ae 8cbe
00000220: 5740 71be 2845 37bf 569b 48be d988 d1be
00000230: 04fe 76be 9246 4fbf e91c a7be 6522 4cbf
00000240: 5651 6d3d c6b7 b4be 377e adbe a925 15be
00000250: f537 a6be 0aff 3ebf e847 51bf 30b5 4dbf
00000260: 494b 0ebf 5b01 1cbf c903 85bf 8b3a 75bf
00000270: e581 9bbf 7dab 52bf 036a 9bbf 8210 94bf
00000280: a821 02bf b859 fabe 23dd b3bf c30f 09be
00000290: 0fd5 01be a2cc 97be 9c68 d33d 9a62 07bf
000002a0: b704 a0be a58c 7abe 4728 01bf 96b2 adbf
000002b0: 89ae 4cbe a1be 30bf a152 fcbd bb73 8ebe
000002c0: 963e 923f 1786 09bf 5258 0abf c44c 39bf
000002d0: dc70 15bf 5c4f 333e 8cd8 a9bf 97cf 20bf
000002e0: 8afd c4be 2321 49be c499 f83d 482e 13bf
000002f0: 97d3 cabe af9a b4be acce 6abe 829c 043d
00000300: 4bd1 cfbc 0abd 38bf 35b1 d63e 7fe5 6bbf
00000310: 721c 1abf 7698 5fbf bd1d bcbe 8dc6 81bf
00000320: 9c6f fbbd 4f37 c1be 4f59 c93e 18c0 16bc
00000330: 1ba9 ff3e b6da 26bf 2a58 00be 5c6c 06bf
00000340: dbcf cbbe 5f4f 94bc e1bc 10be 86ee 4ebe
00000350: e6cc 53bf e974 83be b251 8a3d 7dae ce3e
00000360: 5671 113e 3ecf 64be e2fa 9ebe 82ca 00bf
00000370: fd81 cf3e a824 40bf 0a5b d13e eb86 3cbe
00000380: 7428 05bf a6ef ce3d 3934 96be 7b36 9a3e
00000390: 593c bc3d ed80 4d3e daa1 b1bd 6ba5 c13e
000003a0: 4381 003f 04fd 8d3e 0352 f33e 62be d8be
000003b0: 2b17 e5be fe70 2f3d 380d 933c 1564 6e3e
000003c0: f033 9f3e 8809 0e3f 3d9e b3be ef51 36bd
000003d0: 473a f63e abab 6f3e 000f 19bf fb8b 273e
000003e0: aed7 c3be b2fb 6cbd 0c08 f53c c586 85bf
000003f0: 7f13 243f a7e0 e3be d4e7 28bd 03dd 0e3e
0.016019685 -0.23227908 -0.10363339 0.4029843 -0.13542782 0.39711258 0.5680314 0.47341922
-0.45976228 -0.08783351 -0.42900506 -0.08307452 0.2685816 0.13813712 0.4373694 0.06079941
0.036923777 -0.071466275 0.362009 0.15264916 0.28478327 1.2287663 -0.3557152 0.2799065
0.35027117 0.36563298 0.32414803 -0.09667188 0.1823067 0.06109136 0.16005972 -0.41166255
0.32804695 -0.451401 -0.24630213 -0.16078007 0.31192636 0.13828664 0.0052786106 0.37993425
-0.442268 0.85246634 -0.16192563 -0.17229816 0.029157965 -0.39342865 -1.3200042 0.24788797
-0.19804019 0.27126583 -0.3856021 0.8427426 0.3023447 0.16126086 0.87349945 -0.097049415
-0.064483926 0.08540425 0.2771749 0.021583641 -0.37023643 0.12556739 -0.004880078 0.115851395
0.27001643 -0.0015496034 -0.52684206 0.10612356 -0.1168822 -0.3970208 -0.0017948195 0.066372626
-0.08594419 -0.28254363 -0.4471751 0.11861181 -0.6757156 0.0939591 -0.24500985 0.17400058
0.47572204 -0.21573722 0.34684357 0.14464086 -0.08990033 0.018991007 0.2524991 0.2924775
0.04454343 -0.021829853 0.40249008 -0.42669266 0.2732293 2.2068021 2.1637943 -0.3733124
-0.31160605 -0.15234944 0.4586293 -0.16855493 -0.030459478 -0.7818045 -1.0056137 -0.4063436
-0.29617473 -0.14645928 0.31782252 -0.6829297 -0.58181787 -0.30450425 -0.4045183 -0.13753152
-0.259241 -0.8334111 -0.28123236 0.103186704 -0.1480387 -0.60454357 -0.44764274 -0.77457446
-0.28627396 -0.6256996 0.19650024 -0.8729903 -0.26813015 -0.35557297 -0.799835 -0.8344954
-0.33051506 -1.0863905 -0.3515519 -0.8701436 -0.039469067 -0.34375843 -0.429383 -0.27476797
-0.235597 -0.715899 -0.19590506 -0.4092472 -0.24120337 -0.80967057 -0.32639244 -0.7973998
0.057938896 -0.35296458 -0.33885357 -0.14565147 -0.32464567 -0.7460791 -0.81750345 -0.80354595
-0.55583626 -0.6093957 -1.039178 -0.95792454 -1.2149016 -0.8229292 -1.2141727 -1.1567538
-0.50832605 -0.48896575 -1.405186 -0.13384919 -0.12678932 -0.2964831 0.10322687 -0.5288483
-0.31253597 -0.24467714 -0.50452083 -1.3570125 -0.19988455 -0.69040877 -0.12320448 -0.2782267
1.142535 -0.5372023 -0.54041016 -0.7238276 -0.58375335 0.17510742 -1.326921 -0.62816757
-0.38474685 -0.19641547 0.121387035 -0.57492495 -0.39614555 -0.35274264 -0.22930402 0.03237582
-0.025368353 -0.7216345 0.41932073 -0.9214706 -0.60199654 -0.8734201 -0.36741439 -1.0138718
-0.12277147 -0.3773751 0.3932595 -0.009201072 0.49933705 -0.65177476 -0.12533632 -0.52509093
-0.3980702 -0.018104253 -0.14134552 -0.20208177 -0.82734525 -0.25675133 0.067538634 0.403675
0.1420339 -0.22344682 -0.31050783 -0.50309 0.4052886 -0.75055933 0.4088977 -0.18410842
-0.5201485 0.10104303 -0.29336718 0.3011969 0.09191198 0.20068713 -0.08673449 0.37821516
0.5019724 0.27732098 0.47523507 -0.4233275 -0.44744238 0.042832367 0.01795064 0.23280366
0.31094313 0.55483294 -0.35081664 -0.04451173 0.48091337 0.2340533 -0.59788513 0.16361992
-0.38250488 -0.057857223 0.029911064 -1.0431753 0.6409225 -0.44507334 -0.041236714 0.13951497

embedder.emb_rnn.weight_hh_l1 f4 [30, 10]
00000000: 952b 1a3e ef02 61be a89f 9a3e 4350 923e
00000010: 0f9d c63e cd75 093e 575c 623e 3547 46be
00000020: c80e 043f 38c1 a7be b2f7 3f3e 0da4 8c3e
00000030: ecf0 ab3e fa87 ec3d 1cff 00be 648b c0be
00000040: 1e09 8e3e 2bf7 4ebe 543f 523e 811c aa3e
00000050: eec1 b83d 9cf9 93be 940f a4be 8f06 8ebe
00000060: 7f31 b9be 6421 a7be 1ac4 0abf 1586 583d
00000070: b79e a2be d4c6 e5be 1ff5 243f 3893 353f
00000080: cc8b c73e fedb 343e 9392 6dbe 0bca 80be
00000090: 0894 09be e6a8 ac3e 1c00 273f 2bf5 3f3f
000000a0: 547a e4bd aa05 17be 378c d23e dcba 74be
000000b0: ea1e 66be 0f4c 42be 817a 18bf d1bc 643e
000000c0: adce 983e 8a0d 923e c401 873e 6ac8 c6be
000000d0: e319 1dbd b243 ab3e b887 07bf eab9 e9be
000000e0: 0723 553d d09f 0cbf 8e3a b73e 2681 1d3e
000000f0: ca76 a33e 7a12 e5be e099 86be 608d 1a3e
00000100: 6ed9 31be 9de1 fabd 1419 8c3d 0f8d ab3d
00000110: abb3 5dbe 3144 dbbe 6ca1 bf3d b37b f5bd
00000120: da63 983e 0ee5 a8be faad b03b d63c 96be
00000130: 80f7 f1bd 0902 873e 8676 dabd 74e9 193e
00000140: edea 48bd 22e5 b1be 4b86 133d 68ee b63e
00000150: 963b b43d 2fbe c73e 4b68 5e3d ded3 74bd
00000160: 18a3 83be f0d2 2ebc 0146 d0be 6cce 043e
00000170: 9959 2f3f 0705 253f 9cf6 503f 89f1 e13e
00000180: 69b1 8abd 8f16 1e3e d8a7 b7be d468 06be
00000190: 33f9 5d3e a5ce 133e 4b8b edbe 9669 74bf
000001a0: 6b75 c5be a521 a8be 554e b93e b964 9dbe
000001b0: da01 353f 7e09 7f3f ade6 09bf 00b3 47bf
000001c0: f443 32bf 2c82 56bd dfb1 8abe 670f a8be
000001d0: e615 98bf 45ed 873e 5261 6fbe 7edb fabd
000001e0: 712f 8f3e f48b 553d 9b61 a5be b55c 40bf
000001f0: 355d 3ebe d2ff aabe 6e4b 1ebe 65e9 4abf
00000200: 41e5 163f e20f 563e 62ed 153f c95c c2be
00000210: 5dfb 60bf 6964 25bf cddb 60bf ac2f c2be
00000220: 0b7f 7ebc 93e3 06bf 182c 413f 90f1 4d3f
00000230: 0e47 1fbf cb68 eebe 3e50 9d3d 6534 b3be
00000240: 60f3 33be b7f6 5a3e cbc0 133f c989 dbbe
00000250: 4669 c0be 102c 2fbf 1023 a63e 782a fa3e
00000260: 966b 2cbf 094a 0bbf d945 4cbf 781e 2abf
00000270: f46c 0b3f 0706 efbe 35fa 333f df0a ed3e
00000280: ed51 913e 08e7 373f 649c 4cbf 6a66 7bbf
00000290: d2f7 03bf 23b7 8abe 056f bebe d8ac febe
000002a0: 4124 923e d2a9 063e c2b4 3bbf f306 a73e
000002b0: fb5c 2c3e b780 08bf 12c9 b7be 0103 b1be
000002c0: 473f eebe c38f 36bd 08b9 cebe 4a9e fb3d
000002d0: 792d e1be ddf3 a73f 0825 61be e851 31be
000002e0: ae0b 5c3e 7eb4 1f3e 567e babe 3d15 00be
000002f0: f72b 81be 51b2 093f 8fd9 a03e d196 f1be
00000300: 6830 a3be 3b72 08bf 5c4d 42bf 4294 56be
00000310: 8690 143d dcad ddbe f1a5 28be ebec 2e3f
00000320: 2450 713e abc3 4fbe 9e11 07bf efcd e7bd
00000330: c417 cdbe b1f1 933c b9d9 893d 8ffb 52be
00000340: be1b af3e a9fd 9e3c 7e4d 8fbe 0a52 0cbf
00000350: b05f 263d c2ca b6be bc20 36bd 50bc d3bd
00000360: 7539 e2be cc3b 803e 3e82 40be 020f 523e
00000370: 8ff4 263f 9579 02be 3bdb 62be 7280 46be
00000380: 061b 97be bb15 093f d8db 9f3e 840d c1be
00000390: 2216 e93e 3c8d ec3e e152 51be c4ad adbe
000003a0: d25b 443c f5c9 963e 3776 993e e8c8 d6bd
000003b0: bd41 933b e5de 08bf 1c53 b83e 7b8c 90be
000003c0: e9db 5bbe 8ffd 173f f120 0e3d ebc4 263e
000003d0: 8229 52be 596c 0f3f cca9 173f 53c4 c8bd
000003e0: fe1c b43e 0782 3abe 2789 133e e457 023f
000003f0: 1f5a 15be 57fa dcbe 7d43 01be 97a1 2cbe
0.15055688 -0.21973775 0.30199933 0.2857686 0.387917 0.13423844 0.22105537 -0.19363101
0.51585054 -0.32764602 0.18746832 0.2746891 0.33582246 0.11549373 -0.12597317 -0.37606347
0.2774133 -0.20211475 0.2053197 0.33224872 0.09021364 -0.28901374 -0.32043135 -0.2773938
-0.36170575 -0.32642663 -0.5420548 0.052862246 -0.31761715 -0.44878256 0.64436525 0.70927763
0.38973844 0.17662045 -0.23200445 -0.25154147 -0.13435376 0.3372261 0.6523454 0.7498347
-0.11156145 -0.14748254 0.411226 -0.23899406 -0.2247273 -0.18974327 -0.59561926 0.22337653
0.2984518 0.28525954 0.26368535 -0.3882478 -0.038354766 0.33450085 -0.52941465 -0.45649654
0.052035358 -0.54931355 0.3578686 0.15381297 0.31926566 -0.4474066 -0.26289272 0.15092993
-0.17368099 -0.122500636 0.06840721 0.08376514 -0.21650569 -0.42825463 0.09356961 -0.119864844
0.2976368 -0.32987255 0.0053918334 -0.2934329 -0.11814785 0.2636874 -0.10667138 0.15030462
-0.049052168 -0.34745127 0.036016744 0.35728765 0.088004276 0.39012286 0.05429868 -0.059772365
-0.25710368 -0.010670409 -0.4067841 0.12969369 0.6849609 0.64460796 0.81626296 0.4412959
-0.067721196 0.15438293 -0.35870242 -0.13125926 0.21677093 0.14434297 -0.46395335 -0.9547361
-0.38566145 -0.3283817 0.36192575 -0.30740908 0.7070595 0.9962386 -0.5386761 -0.7800751
-0.6963494 -0.052370235 -0.2708883 -0.3282425 -1.1881683 0.2654821 -0.23376969 -0.12248896
0.27965882 0.052135423 -0.3230103 -0.7514146 -0.18590243 -0.333983 -0.15458462 -0.7926238
0.58943564 0.20904496 0.5856534 -0.37961414 -0.8788355 -0.6460634 -0.8783539 -0.37926996
-0.015533219 -0.52691 0.75457907 0.8044672 -0.62217796 -0.46564326 0.076813206 -0.3500091
-0.17573309 0.21383177 0.57716054 -0.4287856 -0.37580317 -0.6842661 0.32448626 0.48860526
-0.67351663 -0.54409844 -0.7979408 -0.6645274 0.54463124 -0.46684286 0.7030366 0.46297356
0.28382817 0.718369 -0.79926133 -0.98203146 -0.5155002 -0.27092847 -0.37194076 -0.49741244
0.28543285 0.13150719 -0.7332269 0.3262249 0.16832344 -0.53321403 -0.35895592 -0.34572604
-0.46532652 -0.044570696 -0.40375543 0.122860506 -0.43980005 1.3121296 -0.21986783 -0.17316401
0.2148883 0.15596196 -0.36424512 -0.12508102 -0.25228855 0.53787714 0.31415984 -0.47185376
-0.3187287 -0.532993 -0.7589929 -0.20954993 0.03627064 -0.43296707 -0.16469552 0.6833026
0.23565727 -0.20289485 -0.52761257 -0.113185756 -0.40057194 0.018059583 0.067309804 -0.20603774
0.34200853 0.019408064 -0.2798881 -0.5481268 0.0406186 -0.35701567 -0.04446481 -0.10338652
-0.4418446 0.2504562 -0.18799683 0.20513538 0.65216917 -0.12741692 -0.22153942 -0.19384935
-0.29512805 0.53548783 0.31222415 -0.37705624 0.45524698 0.46201503 -0.20441772 -0.33921635
0.011984782 0.29450956 0.29973003 -0.104875386 0.0044939206 -0.5346511 0.36000907 -0.28232178
-0.21470608 0.59371275 0.034699384 0.16286056 -0.20523646 0.560247 0.59243464 -0.09803071
0.3517837 -0.18213664 0.14407788 0.5091536 -0.1458516 -0.43159744 -0.12623401 -0.16858517

embedder.emb_rnn.bias_ih_l1 f4 [30]
00000000: cd8f 913f bc4e 933f 0417 933f 12f3 8a3f
00000010: 1ed2 873f 046d 583f f563 5e3f 41a4 8b3f
00000020: c18a 973f e20d 8f3f 8670 233f 8404 213f
00000030: b5f6 993e 0868 083f abcb 013f 2628 0e3e
00000040: 8f1e 063f 905c 143f c477 1a3f 8fe4 ca3e
00000050: 660a 393f 58a0 513f 0a3a 9e3f de66 843f
00000060: d34c 8f3f 7fd6 803f 10b5 643f d74a 873f
00000070: 7527 363f 1964 243f
1.137201 1.1508403 1.1491399 1.0855429 1.0610998 0.84541345 0.8687127 1.0909501
1.1839219 1.1176112 0.6384357 0.62897515 0.30071035 0.5328374 0.507014 0.13882503
0.5239038 0.5795374 0.60339 0.396275 0.7228149 0.8188529 1.2361462 1.0343893
1.119532 1.0065459 0.8933878 1.0569714 0.71153957 0.64215237

embedder.emb_rnn.bias_hh_l1 f4 [30]
00000000: b07d 0c3e 7b76 1a3e 23b8 183e 4931 af3d
00000010: ba3f 7a3d c44b 1ebe 9f6f 06be f243 ba3d
00000020: d655 3c3e bfdd f03d f41e b9be b9f6 bdbe
00000030: 8d04 33bf f52f efbe be68 fcbe 0b76 5cbf
00000040: 02c3 f3be 0f47 d7be 7e10 cbbe 9e8d 1abf
00000050: fcd0 90be b0b4 5fbe 2df8 593e c626 383d
00000060: 41b7 363e a36d fb3c d850 d5bd b125 5d3d
00000070: 80be 96be 6ba2 dfbe
0.13719821 0.15084259 0.14913993 0.08554322 0.06109593 -0.1545859 -0.13128518 0.09094991
0.18392119 0.11761045 -0.36156428 -0.37102297 -0.6992882 -0.46716276 -0.49298662 -0.8611762
-0.47609717 -0.420464 -0.3966102 -0.6037234 -0.28284442 -0.2184627 0.21286078 0.044958852
0.17843343 0.030691927 -0.1041581 0.053991023 -0.29442215 -0.43678603

embedder.emb_rnn.weight_ih_l2 f4 [30, 10]
00000000: 8da1 0f3f 6379 11be 1bd2 753e cc90 a33e
00000010: 0a6e 683e d9e5 78bd 6e88 c73d ac6a d3bc
00000020: 1d61 bb3e e002 62be 1906 03bf 14bc 183f
00000030: 324d 9a3d 8f98 8ebe 00af f9bc 5c47 b33d
00000040: 6021 8bbe bbfe 43bf 6ff8 9ebe 1fba edbd
00000050: 12f1 8c3e d7c7 a93d 7919 363d 681c f93e
00000060: e634 92be 9266 13be 311b 43bf 6e7e 33be
00000070: ac8b 373e 575e cbbc 9d45 633e 6472 e73d
00000080: bf5b cd3e 5d70 da3e 4097 ee3d d7a8 973f
00000090: aa2b d23e e69b 3b3e 3964 86be ff33 a1be
000000a0: 3450 cfbc ee70 cdbe c3e3 b9be 022a 003f
000000b0: 727c 90be 250b 7d3e 558c e73e a0f3 1f3e
000000c0: 8fb9 df3e 2f15 12bf 0ec0 123f 9e33 19bf
000000d0: 2b91 3bbd 5d72 133f 0933 7d3e c28f 8cbe
000000e0: d6da b4be 1bab d33d 9e52 f23e 2f96 bfbe
000000f0: bd3e 9d3e 72a8 8dbe 3ef0 953e e399 153e
00000100: 2ca0 283e 2e2f be3f eefc 753e b07c c4be
00000110: 78f5 433d 7b8f 60be 68ac 1a3e 7105 0bbf
00000120: c3ac 38be 273d 30be 6295 c3be 34c5 eabe
00000130: eda7 073c 2578 c7be e0ec 093e dfe0 d33d
00000140: 1c6c 1b3f 615c 8e3c bb3e c23c 5465 ce3d
00000150: ce51 9b3e d673 b4be 30f5 0c3f bd41 23bf
00000160: 78ca 94bd 6ddb 3bba 7b47 94be 19c0 bf3e
00000170: 38a9 af3e 6ef0 7bbd b87b c03e f025 84bc
00000180: 7080 f4bd f652 5fbd 713d 62be 208a bc3c
00000190: fbca 143e 4809 f13d 5fb9 5abf 9637 65be
000001a0: d428 f3be 1754 933e ea33 633e 484d 30bf
000001b0: 5868 9e3e f3c6 d3be 6dfb f23e 8559 193f
000001c0: 78f6 bfbe 128e 4bbf 442d bbbe ef78 ffbd
000001d0: a1a7 363f a0cf 04be d78a 363f 866b 3b3e
000001e0: 5fbc 523f 50a0 4c3f 7186 9ebf 0573 aabf
000001f0: 9b86 40bf d200 bcbe 30a0 093e db11 72bf
00000200: 4192 633f 6e31 7f3f b23a 253f 8b66 99be
00000210: 73ac 0bbf acd1 02bf cf0d 29bf 8f63 8a3e
00000220: 6b90 1a3e a558 e1be 4f0f ed3b 0a92 3abe
00000230: 128f e23e d4b3 0bbe 08c0 1fbf d0cc efbe
00000240: 62ea 60bf 9526 363e 2113 363f bb06 b3be
00000250: ac0f fb3e 4e90 553d 330d 643f d826 b3be
00000260: a69c 173d 8564 8a3e 7f6b a9be fdf0 4abf
00000270: f630 0d3f bcce c7be a6b0 e23e 292e 01bf
00000280: 5181 ce3d 6631 d13e 92dc 81be 04a9 f9be
00000290: c253 f5be 3ef5 173d fb5e c33e 4291 17bf
000002a0: beea 4e3e ca9b 8cbe 8ce5 023f 46c2 d03e
000002b0: 6fd1 0ebf 3e66 e7be 5e69 4abf 115b 5fbf
000002c0: 4f13 a43e 7ec7 7fbe 5e70 cc3e 68b0 24be
000002d0: 98a5 f03e 7633 033e dd87 5fbf 3100 19bf
000002e0: 095e a1be 9c19 7bbf dca6 ce3e a273 58bf
000002f0: 3cba 703f 3333 4bbd 03b7 923e a39f e63e
00000300: 08f7 81bf b9ee cabe 6b4e 85bf d1d2 dcbd
00000310: be2b 21be 0d47 22bf 6d38 853e 7e30 f53e
00000320: ba80 01bf 13d0 de3e b301 ac3d 1172 27bf
00000330: 57e8 a1be b50b ccbd 95a2 04be d0e1 17be
00000340: 85ea 163d abd9 843e 9290 5fbd 8dac 173e
00000350: 8a44 d2be 168b e7bc e922 c2bd 1615 ebbe
00000360: 24d9 59bf 4656 2f3f 7605 24be 01df df3e
00000370: ce62 f23e 60b9 e93e 806e 97be 783b d2bc
00000380: 6937 91be 95ec 213f c944 8c3f 4cf3 e6be
00000390: dcfe 2b3e 50a6 943d 9edd 9c3b 55e0 913e
000003a0: b8ca ac3a 22de 913d a502 1f3e c992 66bf
000003b0: 2812 57bc f817 5bbe 85e7 6f3e 33f7 ad3e
000003c0: 5cdb 7abe a662 f03e 7331 b9be 497b 12be
000003d0: 2895 4c3d dac5 c2be 8265 d0bd 4076 d3be
000003e0: 2ddf c1be 0d0a e03e 33b6 8d3d ec50 d7bd
000003f0: b54f 273e 18c5 34be 245c ba3e b6ef 34be
0.5610588 -0.14206462 0.2400593 0.3194641 0.22698227 -0.060766075 0.09742819 -0.025807701
0.3659753 -0.22071409 -0.5118118 0.59661984 0.07534255 -0.27850768 -0.030478954 0.08753845
-0.271739 -0.7656056 -0.31048915 -0.116077654 0.27527672 0.082900696 0.044457886 0.48654485
-0.28555983 -0.14394596 -0.76213366 -0.17528698 0.17924374 -0.024825258 0.22194524 0.11301115
0.4010906 0.4266385 0.116499424 1.1848401 0.41048938 0.1832119 -0.2624834 -0.31484982
-0.025306799 -0.4012522 -0.3630658 0.500641 -0.28219944 0.24711283 0.45224252 0.1562028
0.43696257 -0.57063574 0.573243 -0.59844387 -0.04579274 0.5759638 0.247265 -0.27453429
-0.3532321 0.1033537 0.47328657 -0.37419268 0.30711928 -0.27667576 0.29284853 0.14609484
0.1646735 1.4858148 0.24022266 -0.3837638 0.04784152 -0.21929733 0.1510483 -0.5430518
-0.18034653 -0.17210828 -0.38199908 -0.4585358 0.008279783 -0.3895885 0.13469267 0.10345625
0.60711837 0.017378034 0.023711553 0.100779206 0.3033585 -0.35244626 0.55061626 -0.63772184
-0.0726518 -0.0007166181 -0.28960785 0.37451246 0.3430879 -0.06150859 0.3759439 -0.016131371
-0.1193856 -0.054522477 -0.2209375 0.023015082 0.14530556 0.117693484 -0.85439104 -0.22384486
-0.47492087 0.28775093 0.22187772 -0.6886792 0.30938983 -0.41362724 0.47457448 0.5990222
-0.37492728 -0.7951366 -0.36557972 -0.12474238 0.7134953 -0.12969828 0.713056 0.18302736
0.8231868 0.7993212 -1.2384778 -1.3316351 -0.7520539 -0.36719376 0.13440013 -0.94558495
0.8889504 0.996848 0.64542687 -0.29961047 -0.5456001 -0.51101184 -0.66036695 0.27029082
0.15094154 -0.44012943 0.007234491 -0.18219772 0.4424978 -0.13642818 -0.6240239 -0.46835947
-0.8785764 0.17788155 0.7112294 -0.34966072 0.49035394 0.052139573 0.8908264 -0.34990573
0.037014626 0.27029815 -0.33089826 -0.7927397 0.55152833 -0.39024913 0.44275397 -0.5046106
0.10083259 0.40858 -0.25363594 -0.4876176 -0.47915465 0.037099116 0.38158402 -0.5920602
0.20206735 -0.27462608 0.5113151 0.4077322 -0.5578832 -0.45195192 -0.7906703 -0.8724833
0.3204598 -0.24978444 0.3992948 -0.16082919 0.47001338 0.128126 -0.87316686 -0.5976592
-0.31517056 -0.9808595 0.4036168 -0.8455144 0.9403417 -0.049609374 0.28655252 0.45043668
-1.0153513 -0.39635256 -1.0414556 -0.107823975 -0.15739343 -0.63389665 0.26019612 0.4788856
-0.50587046 0.43518123 0.083987616 -0.65408427 -0.31622574 -0.099631704 -0.12952645 -0.14832234
0.03684475 0.25947317 -0.054581232 0.14811917 -0.41067916 -0.028264564 -0.09479315 -0.45914525
-0.85096955 0.6849102 -0.16017708 0.43724826 0.47341007 0.45649242 -0.29576492 -0.025663123
-0.28362587 0.6325162 1.0958492 -0.45107496 0.1679644 0.07258284 0.004787161 0.28491464
0.0013182973 0.071224466 0.15528353 -0.90067726 -0.013126887 -0.21395862 0.23428161 0.3397766
-0.24497741 0.46950263 -0.3617054 -0.14304842 0.049946934 -0.38041574 -0.10175611 -0.41301155
-0.37865582 0.43757668 0.06919517 -0.105134815 0.16339 -0.1765331 0.36398423 -0.17669567

embedder.emb_rnn.weight_hh_l2 f4 [30, 10]
00000000: 813b 50bc a49b f6be 0f51 963e df82 ecbd
00000010: 7a36 f5be 5b36 6ebe 2b35 b8be 7ae5 17be
00000020: db60 51be 710f adbe bb5b e13e 7a40 45bf
00000030: e608 273e 8370 e13e 5f14 3f3f 0ba8 34be
00000040: 2b66 ab3e 5e9b fd3e 3269 96be a43f ffbd
00000050: 82a5 a93e b284 05bf 6207 b3be b21d e9be
00000060: 4906 ab3d 11cf c1bd 8f44 d1be 8c3f 08be
00000070: 98c5 79be 2277 cc3e bf74 9c3e 0f1f 3f3c
00000080: d52a a43e 25d7 00be 9544 4d3e dc1d 073f
00000090: 89bc 663d 6b32 91be c3e9 bc3e 4178 2e3d
000000a0: 369f 3e3d 9a9f b1be 8d89 74be 6cc5 bdbe
000000b0: 37e9 03bf eda8 f8bc 3c0a eebd 66ae 80bc
000000c0: 9249 7abe 4168 073f f0c5 78bc 0971 993e
000000d0: 97bd a33c dadd 17bf ad32 bdbe 1fc4 403e
000000e0: 7d79 133f b920 a4be b066 07be 94a2 ffbc
000000f0: 63dd 243f 7c16 f83c 2bda 233f 7d94 e5be
00000100: fe5e 52bf 142d 3d3e e1e2 38bf 8248 7bbe
00000110: 925d 5ebe c5a6 f4be ddc7 b0be 6742 ccbd
00000120: 657c b33d 575f c3bd c200 3bbe 27da a7bd
00000130: 1931 2cbf b5a0 8e3e aed2 2ebf d8cb 133f
00000140: 91db 41be 8ad5 b1be 8797 2ebd 4d78 dd3e
00000150: 9c6d fe3e a770 7f3e 8478 c23e 061f 79be
00000160: 015b 153e 84d3 933d 35e0 e2be 69c6 a6be
00000170: d0a6 a63e 46a9 c53d 7131 63be 1ada bbbe
00000180: 4b33 d53c 98e2 52bd 07ee 08be a655 8fbe
00000190: 0a76 273e 563a 05bf 70ee 0e3e b976 453d
000001a0: e501 d0be 86d5 87bf 5364 70be 42ae a5bf
000001b0: 52ad 87bf 6184 bfbd 1404 c63e 4714 82be
000001c0: 5abb 48be f5db 1f3e cb7d 003e 44b4 8abf
000001d0: 37da 0d3f c392 5cbf 6263 8cbc d34d b33d
000001e0: 17d6 7f3f 69cd 82be ba44 003c 858a 6f3e
000001f0: 5b79 043f f51d 6cbf 511a d93e c7da b1be
00000200: 7d35 f5be e5db b8bd 2d65 f7bd 4aaa 64be
00000210: 976f d9bf fd04 1abe dbb9 703d 34f6 0c3f
00000220: 866c 82bf 9aab 0f3f 61f1 6dbf c6a8 98bf
00000230: dca2 933e 22fd 1abf c843 e2be 366f 35bf
00000240: 9600 95be 1fe5 80be c1bf 90be 3bc7 c2be
00000250: 9e49 0dbf d38c 6cbd 0ec0 57bd a060 6dbe
00000260: 8997 c6be 333d 49bf abf2 0bbf 0b7d 643d
00000270: 1eb3 f0bd 9345 a43e 11a1 c83e b3bb 253e
00000280: c988 70bc 3db7 17bf 49bc 163f 5e0c c7be
00000290: d06e 8b3e cc6e 51bf 8818 e0be 29d4 0ebf
000002a0: 4aed 89bf 3b29 8abe ed7a 953e 92a9 20bf
000002b0: a47e 673f 0032 d83d cdca 063e feb7 73be
000002c0: bb44 fdbc c65c 84bf 476f f5be 1f87 d3bd
000002d0: 320a fabc 3f14 41be eb0a 8cbe 75e9 043f
000002e0: d421 0039 ed9e b2be 4cd2 cfbe 81ed aa3d
000002f0: 6113 93be 385a 08bf 6dd7 3fbe 22bb f7be
00000300: 7982 cabe 1b09 9b3e 9574 cc3c 2f28 0d3f
00000310: 27f8 60bf cc31 e03e 5767 943d 6480 67be
00000320: 1312 a5ba bcda 17bf c5ab bbbe 5370 2c3e
00000330: 64c2 f3bc 90ae aebe f1cb d2be e6b4 02be
00000340: 5380 30be c245 ee3d a7e8 c33e a147 c93e
00000350: 588b 8f3e 3515 04bf f962 91bd d3bf f8bd
00000360: 766a 193d 05bf 16bd f13c e8be 3eb6 853e
00000370: 22cc 06be 0522 d73e 08d0 613d 302d b73e
00000380: ea6b 123d 3ad9 b7be 1cd6 c83d c408 813c
00000390: d7ba 27bc f1a1 24be ffa6 c1be 707e e6bd
000003a0: d9cd 33be 73ae 0f3e c729 0a3e bd2b 08bd
000003b0: 807e ce3e 27c1 a43e 0492 a7be 9d3d 4bbe
000003c0: 7727 91be 664a 8cbe f3ad b9be 364f 803c
000003d0: 0ac0 7cbe 0cdf 62bc 18bf d53d da12 80be
000003e0: 66eb adbe 8f83 c2bd 63fe 113e 1a1d 3ebd
000003f0: 65ff 623d 3682 c03e f9fc 473e c714 f2be
-0.012709499 -0.4816562 0.29358718 -0.11548399 -0.47893125 -0.23262922 -0.35978064 -0.14833632
-0.20447104 -0.33800843 0.44015297 -0.7705151 0.16311988 0.44031152 0.7464046 -0.17642228
0.33476385 0.49532598 -0.29377133 -0.1246331 0.33134085 -0.521556 -0.3496657 -0.45530468
0.08350808 -0.09463323 -0.4087262 -0.13305491 -0.24391782 0.3993464 0.3055782 0.01166512
0.32063928 -0.12582071 0.20045693 0.52779937 0.056332145 -0.28358778 0.36897096 0.04259515
0.046538554 -0.3469208 -0.23880596 -0.37064683 -0.5152773 -0.030353988 -0.11623046 -0.01570816
-0.24442127 0.52893454 -0.015183911 0.2996905 0.019987864 -0.59322894 -0.36952725 0.18824814
0.5760725 -0.32056215 -0.13222766 -0.031205453 0.6440031 0.030284159 0.6400477 -0.4483985
-0.82176197 0.18474227 -0.7222119 -0.24539378 -0.21715382 -0.47783485 -0.34527484 -0.09973603
0.08763961 -0.09539669 -0.18262008 -0.08195906 -0.6726242 0.27856985 -0.6829022 0.57732916
-0.18931414 -0.3473323 -0.042624976 0.43255845 0.49693 0.24945317 0.3798257 -0.24328241
0.14585496 0.07218078 -0.4431168 -0.3257325 0.32549143 0.09651427 -0.22186829 -0.36689836
0.026025435 -0.051485628 -0.1337205 -0.27995032 0.16353622 -0.5204214 0.13958144 0.048208926
-0.40626445 -1.0612037 -0.2347577 -1.2943804 -1.0599768 -0.09351421 0.38674986 -0.25406095
-0.19602719 0.1561125 0.12547986 -1.0836263 0.55411094 -0.8616144 -0.017137233 0.08755078
0.9993605 -0.2554734 0.007828886 0.23392685 0.51747674 -0.9223321 0.4240289 -0.34737226
-0.4789237 -0.090263166 -0.120798446 -0.22330585 -1.698718 -0.15040965 0.058770996 0.55063176
-1.0189369 0.5612122 -0.9294644 -1.1926506 0.2883519 -0.605425 -0.44192338 -0.7087282
-0.2910201 -0.25174806 -0.28271297 -0.38042626 -0.55190456 -0.057751488 -0.052673392 -0.23181391
-0.38787487 -0.7860901 -0.54667157 0.055783313 -0.11752914 0.3208433 0.39185384 0.16184883
-0.01468105 -0.59263974 0.5888105 -0.38876623 0.2723298 -0.8180969 -0.43768716 -0.5579248
-1.077554 -0.2698458 0.29195347 -0.62758744 0.90427613 0.10556412 0.131633 -0.23800656
-0.030916562 -1.0340812 -0.4793646 -0.10328507 -0.03052244 -0.1885538 -0.2735208 0.5191873
0.00012219633 -0.34886876 -0.4059013 0.083460815 -0.28725722 -0.5326266 -0.18734522 -0.48384959
-0.39552668 0.30280384 0.024957934 0.5513944 -0.8787865 0.43787992 0.07246273 -0.22607571
-0.0012593888 -0.5931814 -0.36654487 0.16839723 -0.029755779 -0.34117556 -0.4117122 -0.1276432
-0.17236452 0.11634399 0.38263437 0.3931246 0.28035998 -0.5159486 -0.07098956 -0.121459626
0.037455045 -0.036803264 -0.45358995 0.26115602 -0.13163808 0.42018142 0.055130035 0.35776663
0.035747446 -0.35907918 0.09806463 0.01575125 -0.010237417 -0.160774 -0.3782272 -0.11254585
-0.17558993 0.14031391 0.134925 -0.033244837 0.40330887 0.32178614 -0.3272859 -0.19847722
-0.28350422 -0.27400512 -0.36265525 0.01566277 -0.24682632 -0.013847124 0.10436839 -0.25014383
-0.33968657 -0.09497749 0.14257197 -0.046414472 0.055419344 0.37599343 0.19530095 -0.47281477

embedder.emb_rnn.bias_ih_l2 f4 [30]
00000000: 6fca 683f 68aa 5d3f abfa 813f 8b57 943f
00000010: 84f4 643f fecd 653f ec05 6b3f 6b35 5a3f
00000020: 4fc7 7e3f fce7 833f 6517 cc3e 6f86 fe3e
00000030: 906f 083e c665 e83e ca1e 103f 5af3 633f
00000040: be0f 013f f806 373f 501d 0b3f 11a8 c13e
00000050: 91a1 4e3f 1ff0 463f ac7a 743f c951 663f
00000060: d3c1 683f 9d1b 833f d26d 533f 96f0 813f
00000070: 7386 693f da50 5a3f
0.9093389 0.86588144 1.0154623 1.1589216 0.894356 0.89767444 0.9180591 0.8523776
0.9952287 1.0305171 0.398616 0.4971194 0.13323808 0.45390147 0.5629698 0.890432
0.50414646 0.7149501 0.543416 0.37823537 0.8071528 0.77710146 0.9549968 0.89968544
0.9092075 1.0242802 0.8258945 1.0151546 0.9122078 0.8527962

embedder.emb_rnn.bias_hh_l2 f4 [30]
00000000: 9eac b9bd f656 09be 7150 7d3c d9bc 223e
00000010: 1c5b d8bd 928f d1bd 69d1 a7bd c02a 17be
00000020: 0f45 9cbb 7907 fa3c 40f4 19bf c3bc 00bf
00000030: 15e4 5dbf 04cd 0bbf 58c2 dfbe a365 e0bd
00000040: a2e0 fdbe cdf1 91be b4c5 e9be e92b 1fbf
00000050: e100 6ebe a1a8 2bbe 95f7 70be 44d6 fabd
00000060: 1f1b 44be 4cea 47bd e41c 50be e8f9 fd3b
00000070: 01f3 36be 14bf 23be
-0.09066127 -0.13412079 0.015461073 0.15892352 -0.10564253 -0.10232462 -0.08194239 -0.14762402
-0.0047689746 0.030521141 -0.6013832 -0.5028803 -0.8667615 -0.54609704 -0.4370296 -0.10956886
-0.49585444 -0.28504792 -0.45658648 -0.62176377 -0.23242523 -0.16763546 -0.23531945 -0.12247899
-0.19150971 -0.048807427 -0.20323521 0.0077507384 -0.17866136 -0.1599086

embedder.emb_linear.weight f4 [10, 10]
00000000: cb7f 5dbf 4740 ce3e b0f8 1abf 7d52 9cbe
00000010: c937 97bf 5ead bf3a 2735 46bd ded5 00bf
00000020: 5ab6 543b 9abc 713f ed05 54be e496 f13e
00000030: 414c 9cbe 94ee 133f 3733 2d3f 1373 0dbd
00000040: 9a77 873f 1c07 293f 52b5 75be 6f41 bebe
00000050: 42cf 42bf 5043 ae3e 26ff 37be f473 61bf
00000060: fb52 a3bf 9cfa efbe 43cb 83bf 2f63 0a3e
00000070: e44e d33e 307b 353f 3339 f53d 458c 74be
00000080: 5860 2abc 7ccb 633e 5408 233f e3d4 993e
00000090: 9e77 053e a416 dc3e 8de8 5e3f 33ae 10bf
000000a0: 36f9 c83e 90b0 25bf a2d1 ab3e 13b5 c2be
000000b0: 79f6 e43c f50c 19be e28c 65bf 753c 46bf
000000c0: 4dd7 69be df93 623e fbfc f6bc 5b17 68bf
000000d0: 08a8 723f d4b3 d83e 1e39 bc3d b22c cf3d
000000e0: c652 02be b35b 37bf 5feb 1abf 4d7d be3e
000000f0: 4489 b53c b45c 213f 259d 30bf 20dc fa3e
00000100: f9b5 fc3e 66f6 be3b d64d d83e 6093 fdbd
00000110: 2d74 aa3d 43f0 b03e ca5d 31bf bc88 f2bd
00000120: 6911 043f d065 e8be a5e5 05bf 9f95 5ebe
00000130: 8621 21bf 7c0e 45be 49f2 32bf b80d b03e
00000140: 6d24 95be 7e79 823d e097 8fbe 04b8 6a3f
00000150: 07a2 83be cefb edbe b826 8cbe 6cd3 d1be
00000160: 8144 18bf d63f 8f3f 3c4e 42bf 6e8a 7b3d
00000170: df54 54bf 3817 7fbc c291 f7be c8c9 8ebe
00000180: f819 103e 085c ea3d 2d5a cabe 3bb0 6f3f
-0.8652312 0.40283415 -0.60535717 -0.30531684 -1.1813899 0.0014623811 -0.048390534 -0.50326335
0.0032457323 0.9442841 -0.20705386 0.47185433 -0.30526927 0.57785916 0.6765627 -0.03453357
1.0583375 0.66026473 -0.2399495 -0.37159297 -0.760975 0.3403573 -0.17968425 -0.88067555
-1.2759699 -0.46870887 -1.0296406 0.13514398 0.41271126 0.70891094 0.119738005 -0.23881634
-0.010398947 0.22245592 0.6368458 0.30045232 0.13033912 0.42986023 0.87073594 -0.56515807
0.39252633 -0.6472254 0.33558375 -0.38028774 0.027949559 -0.14946349 -0.89668095 -0.77436
-0.22836037 0.22126721 -0.030149927 -0.9066064 0.94787645 0.42324698 0.09190582 0.10115947
-0.12726888 -0.71624297 -0.605154 0.37204972 0.02216018 0.6303208 -0.68989784 0.48996067
0.49357584 0.005827713 0.42246884 -0.12381625 0.0832294 0.34558305 -0.69283736 -0.11842486
0.51589066 -0.45390177 -0.52303535 -0.21736763 -0.6294178 -0.19243807 -0.6990095 0.34385467
-0.29129353 0.06370829 -0.2804556 0.91687036 -0.25709555 -0.46481174 -0.2737329 -0.40981615
-0.5947953 1.1191356 -0.75900626 0.061411314 -0.82942003 -0.015569501 -0.48353392 -0.27888322
0.14072406 0.11443335 -0.39521924 0.9362828

embedder.emb_linear.bias f4 [10]
00000000: df38 47be 7e8e d33c 12b7 673e 418f 543e
00000010: a5d5 293e 00ff 223d 56f5 043e d33a 04bd
00000020: ed08 a73c d909 693d
-0.19455288 0.025824782 0.2262843 0.20757772 0.16585405 0.03979397 0.12984213 -0.03228266
0.020389998 0.056894157

recovery.rec_rnn.weight_ih_l0 f4 [30, 10]
00000000: 889e a4be f0d5 793e bfbc 6dbe 56a0 c13d
00000010: d186 b83e ec76 85bd f16a e8bd a165 f83c
00000020: 62be 18bf 3224 9dbe 2801 003e 82b1 dd3e
00000030: b010 b53d 59f7 bcbe bfac cbbe 686a 493e
00000040: f869 693d ea69 483e af56 193e 4da2 bb3e
00000050: ac36 51be 37a8 d93d 0bdc dd3d b008 a1bd
00000060: 2311 0c3f a669 053f 32d8 c1be 2e7c fe3d
00000070: 61bd c83e edbf 2d3d 18dd e53c 6fe2 0fbe
00000080: c057 11bd ec02 f33e e170 d43e 3c50 3abe
00000090: aac9 1e3c 8f88 993e b713 9dbe 5727 e93e
000000a0: 9cf5 1b3c 8e0f 6e3e 317b cf3d 2e39 d93e
000000b0: 6475 e2bc 28cd 103f ba30 2e3f 2b39 1ebd
000000c0: cd43 a33e 2ebe 8f3e a818 113e 6940 aabe
000000d0: 5f19 783e 64e7 033c edad b0be 9463 b13d
000000e0: 019c 583c 2236 0e3f 5f89 b23e bace da3e
000000f0: 0dc5 2f3e 85f8 673e 5af7 c13e 8d89 cd3e
00000100: 176c fe3d 93b1 973d 2db5 3c3e 5818 b1bc
00000110: 2935 0f3e c66d 6f3e 34c0 933e 1298 79be
00000120: afcf a13e c3fc f63c 5e71 68bd 1e7f 923d
00000130: 21c4 193e 5956 c03e 34d3 fbbd 9cad 973e
00000140: 5847 0a3f abc4 bcbe d067 853e f967 1cbe
00000150: 0b69 8d3d 77bb a63e c7bd 8abe 2f7f 9e3e
00000160: b328 283f cd5f 693e 3c08 0dbf bf84 3f3e
00000170: 8f98 46be 15ab e83d 6978 49bd c76f e2bd
00000180: bf79 12be dc19 af3c ae61 e2be f15b afbe
00000190: 5e7f 1d3d ead2 aebf 0216 db3d f00d 13bf
000001a0: 8605 923e b387 093f 4f4e 8dbf f909 7d3e
000001b0: e8ee 03bf e1de c7be 4abb 573e 084c acbc
000001c0: a1c9 16be 334e 1ebf 17f8 7e3d 224c f53d
000001d0: 24a0 be3b 7d16 7ebd 4d23 edbe 162f 67bd
000001e0: 0d42 10bf 86ba 50bf b81c ebbe fd61 58bf
000001f0: 9827 12bf 7cf0 6fbf e652 9bbf 062d 83be
00000200: 6921 20be 1f96 40bf c407 d23e 58c7 d03d
00000210: 5101 01be a76a 8abe 4132 c6be 3d26 893e
00000220: 3d63 4cbe e08d 77be bc7c eb3e 7445 dcbd
00000230: 7d1a 64be 47e1 d8be d57a 23bf e90e 79bf
00000240: 8cc9 8ebf 0273 63bf fcab 23bf b9cd 86bf
00000250: c8c5 59bf b19e 67bf 5530 febe ca1b 49bf
00000260: 9b32 35bf 9bee 4fbf cc25 bfbe 0808 afbe
00000270: 858d 80bf 9c2e d6be 1697 68bf b716 92be
00000280: 488a 51bf c56d 0fbf 75d8 20bf 0016 60bf
00000290: a232 e5be aa00 c5be 9c1b 59bf 771f c43d
000002a0: e414 03bf 6cdd 51bf 3464 b5be 86e9 4bbe
000002b0: 1615 c9be bec8 a53e 1c67 d6be 5196 36bf
000002c0: a41e a53c b313 6d3d ea97 4cbf 913f 83be
000002d0: 435d 753d 4758 edbe 1a6f c7be fd1e b3bd
000002e0: 0ec1 2c3f 528e cb3e 21cc 46bf 3d6e 773e
000002f0: 01f5 12bf 5e74 44bf f31c f4be 6c39 db3d
00000300: 562c 0cbf 5f82 37bf 978a 2ebe c215 4ebe
00000310: d69a 0dbd bb88 1dbf 2e45 4ebf e14d 89bf
00000320: a081 e83e 6977 c5bc 07ac a9be ff99 a23e
00000330: e0d5 c9be f6b8 993c 1793 0a3c bd1b adbd
00000340: 5c78 fb3e 7bfd f83e cbfc 57bd 729d 5d3e
00000350: 9cb7 a13e 4f93 2b3d 6220 91be ba3a 673e
00000360: 3db9 073f 03b3 19be 9375 f43e 52d2 203e
00000370: 9a20 83bc 2bc3 0c3f 23d2 01be f10b 77bd
00000380: aa23 babe 9ba1 31bf cfcd e13e fae5 07bf
00000390: 1c56 f2be 1c21 493d c3e1 29be b025 c33d
000003a0: 474a 3ebc f12e 003f ade8 edbe eba0 b7be
000003b0: c2b2 6f3d b1fb e5be 3f6c 1bbf 7661 053e
000003c0: ee4c c63e f301 45bf d742 c63e fe88 e5bd
000003d0: 532a 7c3e 161c 9b3e 1682 f5be b012 103f
000003e0: 82a8 93be 6689 16be d6cd 92be 85ef 1d3e
000003f0: 69ab e7be 6b9b 333e d7f3 a5be 0646 06be
-0.321522 0.24398017 -0.23216532 0.0945441 0.36040357 -0.06516823 -0.113485225 0.030321898
-0.596655 -0.30691677 0.12500441 0.4329949 0.088410735 -0.3690746 -0.39780232 0.19669497
0.056985825 0.19571653 0.14974473 0.36647263 -0.20431012 0.106277876 0.108329855 -0.07862985
0.5471365 0.5211433 -0.37860256 0.12426029 0.39206985 0.042419363 0.028059527 -0.14051221
-0.035484076 0.47463167 0.4149237 -0.1819467 0.009691635 0.29986998 -0.30679104 0.45537826
0.009519007 0.23248121 0.10130919 0.42426437 -0.027643867 0.56563044 0.680431 -0.03862874
0.31887665 0.28074783 0.14169562 -0.33252266 0.24228428 0.008050773 -0.34507695 0.08661571
0.013220788 0.5555135 0.3487043 0.42735845 0.17165013 0.22653396 0.37884027 0.40144005
0.1242296 0.074069165 0.18428488 -0.021618053 0.13985123 0.23381719 0.28857577 -0.24374416
0.31603763 0.030149823 -0.05674874 0.07153152 0.15016223 0.37565878 -0.12296143 0.2962464
0.5401511 -0.36868796 0.26055765 -0.15274037 0.06904801 0.325649 -0.27097914 0.30956408
0.656871 0.22790451 -0.5509069 0.18702982 -0.19394134 0.11360756 -0.049187098 -0.11056476
-0.14304255 0.021374635 -0.4421515 -0.34249833 0.038451545 -1.3658116 0.10697557 -0.5744314
0.2851984 0.53722686 -1.1039523 0.24710836 -0.51536417 -0.3903723 0.21067539 -0.021032348
-0.14725353 -0.6183807 0.062248316 0.11977412 0.00581743 -0.062033165 -0.46315995 -0.05644139
-0.56350785 -0.8153461 -0.45920348 -0.8452452 -0.57091665 -0.93726325 -1.2134674 -0.25620288
-0.15637745 -0.75229067 0.4102155 0.10194272 -0.12598158 -0.27034494 -0.38710216 0.26786986
-0.19959731 -0.24175215 0.45993602 -0.10755435 -0.2227573 -0.42359373 -0.638593 -0.97288376
-1.1155257 -0.88847363 -0.639343 -1.0531532 -0.85067415 -0.9047652 -0.4964625 -0.7855803
-0.7078034 -0.8122346 -0.37333524 -0.34185815 -1.0043188 -0.41832435 -0.9085554 -0.28532955
-0.81851625 -0.5602687 -0.6283029 -0.8753357 -0.44765192 -0.3847707 -0.84807754 0.09576314
-0.5120375 -0.8197849 -0.3542801 -0.19913301 -0.392739 0.32379717 -0.4187554 -0.71323115
0.020156212 0.057880115 -0.799193 -0.25634435 0.059903394 -0.46356413 -0.3895195 -0.08746145
0.6748208 0.3975702 -0.77655226 0.24163146 -0.57405096 -0.7674006 -0.47678337 0.10704312
-0.5475515 -0.71683306 -0.17045055 -0.20125487 -0.03457149 -0.6153676 -0.8057431 -1.0726892
0.45411396 -0.02410479 -0.3313906 0.31758115 -0.39420986 0.018764954 0.0084579205 -0.08452556
0.49115264 0.4863089 -0.052731317 0.21642092 0.31585395 0.04188853 -0.2834502 0.22580996
0.53017026 -0.15009694 0.47745952 0.15705231 -0.016006757 0.549853 -0.12677817 -0.060314123
-0.36355335 -0.69387215 0.44102332 -0.5308529 -0.4733132 0.04910384 -0.16590028 0.09528673
-0.011614389 0.50071627 -0.4646658 -0.35864958 0.058520086 -0.44918588 -0.60712045 0.1302546
0.38730568 -0.769561 0.3872287 -0.1120777 0.2462552 0.30294865 -0.4795081 0.56278515
-0.288395 -0.14700851 -0.28672665 0.154234 -0.45247963 0.17539756 -0.32412598 -0.1311265
